onnx_models/fnet.onnx (onnx, 742014 bytes, 22 tensors)

fnet.conv1.weight f4 [32, 3, 7, 7]
00000000: c6a7 5abd bacd 53bd 01d1 3dbb 801f 3bbd
00000010: 42d5 77bd 75b9 9dbb 5d6e 25bd bf03 cebd
00000020: ef0b 55bd 6828 82bd ac71 523b 28da dcbd
00000030: 2baa a2bc 8494 acbb 378e ee3b 14c2 87bd
00000040: abf7 2dbc ae95 553c 63ac 84bd f566 2dbd
00000050: 0fae 8bbd c9ce 96bc 2d88 023d b9a5 043c
00000060: 461b adbd 6ac4 b2bd 7272 61bd bb3d b9bb
00000070: c226 7b3d 356a 3dbc 35c4 22bc b6ad ae3c
00000080: b9b4 b83c 4e15 82bd bca6 393b 3d99 883d
00000090: 4a35 5a3d 50e1 043e 31d6 6b3d c927 16bd
000000a0: 8751 3a3c 2ae2 32bd 38a5 c63d 6b1c d33d
000000b0: 40f7 033e 1aa5 2d3d f5c3 0a3e e4d0 f43d
000000c0: 3808 c43c 8703 d13a 1efe 88bc 9b74 4ebc
000000d0: 9f7e 183d 88c7 f9bc ddad 51bd c625 94bd
000000e0: 8fdc 80bd ddd4 75bc b2c2 c9bc cd0b 473d
000000f0: 74e0 fabc c93f b1bc fe30 6bbc b95c 663d
00000100: 328e 25bd bc76 593c c03c f3bd 7134 4fbd
00000110: f456 fabc 4dff 653b 016b 893d db77 b43d
00000120: 3baa 87bd 5dd6 183d 6311 95bd cd5f 59bd
00000130: ad3d 61bd dbf3 3e3d 27f7 9e3d d695 7e3d
00000140: 3e81 3c3d a4e1 64bd 75bd a53c 0d8f cbbd
00000150: 33f9 643d e712 263d cd65 d53d 2de6 b63d
00000160: e842 cd3c 0b17 173d 9dea fc3b 0770 413d
00000170: 80ac 3d3d 94c7 ec3d 9430 1b3e 2c21 2d3d
00000180: ed21 223d 6366 6d3d 1e33 b03c 75c1 83bd
00000190: eb35 09bd d44d 74bd fbe6 08bd 0cfd ecbd
000001a0: 04d7 e0bc c1ff 30bd 785a 48bd a865 b6bd
000001b0: 76b2 b4bc 7009 c3bd 0eda 9dbd c97b 83bd
000001c0: ceff 04bb ba8a 38bd f72d 673c 263f 39bd
000001d0: cca7 33bd 174f 0cbd 3bef 98bd f2ed 323d
000001e0: fbf2 8cbb 7444 543d f635 1bbc 209d 0bbc
000001f0: a41a 65bd f80e 43bd 6172 ab3c b020 1e3d
00000200: 21db db3d 4952 4ebd d3d8 18bd 899e b8bb
00000210: 68b1 afbc d9b5 0f3d 17ff 9d3d d539 b13d
00000220: 7b5e 7f3d 14ea 3d3c 2dac 5a3d 6ba1 923c
00000230: a6b0 5d3d cbd2 3a3d 1492 663d 6f32 c03d
00000240: d6f1 0c3e f654 ad3d 272e 48bd 28f5 b83b
00000250: ecaf 46bc de04 9b3c b439 c23b f3c1 8bbd
00000260: 5500 2f3d 7416 173d 6c31 343c 29f1 93bd
00000270: bbb5 ebbd de00 c2bd d87d 81bd 1110 b7bd
00000280: 946f 70bd 1200 843d 39d0 7e3c 1d6e 253d
00000290: deda 84bd eb4d 24bd 28c7 04bd 4327 983c
000002a0: 7a92 043d a4d7 5c3b ec73 453d d989 fcbc
000002b0: da99 33bc c1b3 f83b 9254 b63c abe0 883d
000002c0: 431f 943d c443 853c 4272 743a 9b01 d23d
000002d0: 75a1 c43a 1628 78bc d823 053e 272e 033d
000002e0: 6816 093d 300f b03c 7893 dd3c 4e9d 303d
000002f0: 5075 b93d 18cb ae3d 8e29 dc3c ce1a dabb
00000300: c7b6 9d3d e7a3 f73c d584 4e3d 1694 2d3d
00000310: 4929 41bb ab79 8abd 1e2e cdbc a63a 0fbe
00000320: 2019 9f3c bff4 6abd 44ea 21bd 4f57 0ebd
00000330: 60eb 1abd 05ff 05bc a764 05be 869f ffbd
00000340: c633 57bd d858 4e3c 5a29 e83c d624 1cbd
00000350: 7b99 9abd c9b6 47bd 08bb 84bd 31f2 4fbd
00000360: 8a09 80bb ac1b 913c 8fbb 22bb 8b2a 9cbd
00000370: 30f4 f1bd 421a 5cbd 8bea 8abd 9655 a1bc
00000380: 29af 173d 373d 713d 6e44 303d 9116 103c
00000390: 05d2 fabc a38e e3bd 04e1 0c3d 2e4b ffbc
000003a0: 1377 953b ba9d 8c3b 7721 5f3d 054f 423c
000003b0: 1b94 4d3b bd61 ea3c 64af 4d3c 700f b0bc
000003c0: 0c71 16bd 2f7b a8bc b2e0 9e3c bd99 f3bb
000003d0: e2b9 6cbc 7425 6e3c 36b6 92bd ab17 84bd
000003e0: 30f9 eebd 0ff2 9abd cc04 813c 90e8 433d
000003f0: e8f6 9fbd 9860 a1bd 8675 f4bd a27a 42be
-0.053382657 -0.051709868 -0.0028963687 -0.045684338 -0.060506113 -0.004813368 -0.040388454 -0.10059308
-0.052013334 -0.06355363 0.003211121 -0.107837975 -0.019856533 -0.005266728 0.007280137 -0.06628814
-0.010618131 0.013036175 -0.06478193 -0.042334516 -0.068203084 -0.01840915 0.03186815 0.008096152
-0.084524676 -0.08728869 -0.055040784 -0.005653111 0.06131626 -0.011560966 -0.009934475 0.021323066
0.022547113 -0.0635172 0.0028328141 0.06669853 0.053273477 0.12976575 0.057577316 -0.036659036
0.011371977 -0.043672718 0.09699482 0.10308155 0.12887287 0.04239378 0.13551314 0.11953905
0.0239297 0.0015946486 -0.016722735 -0.012601043 0.03723013 -0.030490652 -0.0511912 -0.07233767
-0.06292068 -0.015004364 -0.02462897 0.04859524 -0.030624606 -0.02163686 -0.014354942 0.05624077
-0.04041881 0.013272937 -0.118768215 -0.05058712 -0.03055904 0.0035094798 0.067098625 0.08811923
-0.06624266 0.037313808 -0.07278707 -0.05306988 -0.05499046 0.046619277 0.07761984 0.062154613
0.046021692 -0.05587925 0.020231942 -0.09939394 0.055901717 0.04054537 0.104198076 0.08930621
0.025056317 0.03688721 0.007718398 0.04722598 0.046307087 0.11561504 0.1515525 0.042267963
0.039583135 0.05795897 0.02150875 -0.064333834 -0.033498686 -0.059644535 -0.033423405 -0.11571702
-0.027446277 -0.043212656 -0.048914403 -0.08906108 -0.022057753 -0.095232844 -0.07707606 -0.064200945
-0.0020294073 -0.045054175 0.01411008 -0.04522624 -0.043861195 -0.034255113 -0.074675046 0.043683954
-0.0043014265 0.051823094 -0.0094733145 -0.008521348 -0.05593361 -0.047621697 0.020928564 0.038605392
0.10735155 -0.050371442 -0.037316155 -0.0056341332 -0.021446899 0.035085533 0.0771467 0.08653609
0.062345963 0.011591453 0.053386856 0.017899236 0.054123543 0.045611184 0.056291655 0.093846194
0.13764128 0.08463471 -0.04887214 0.0056444593 -0.012126904 0.01892322 0.005927289 -0.06824102
0.042724926 0.036886647 0.010998111 -0.07223732 -0.11509272 -0.09472822 -0.06322831 -0.08938611
-0.05870016 0.06445326 0.015552574 0.040388215 -0.06487058 -0.04011337 -0.032416493 0.018573409
0.032366253 0.0033697868 0.048206255 -0.03082745 -0.010961974 0.0075897877 0.022257123 0.06683477
0.07232525 0.016267665 0.0009324887 0.102542125 0.0015001731 -0.015146276 0.13001955 0.032026436
0.033468634 0.021491617 0.027047858 0.043118767 0.09055579 0.08534831 0.026875284 -0.0066560274
0.07700878 0.030229522 0.050419647 0.042377554 -0.002947407 -0.067614876 -0.025046404 -0.13987216
0.01942116 -0.057362314 -0.039530054 -0.034751233 -0.037822127 -0.008178477 -0.13026677 -0.124815986
-0.05253961 0.012594424 0.02834003 -0.038121067 -0.07548805 -0.048758302 -0.06480986 -0.05076808
-0.003907387 0.01771339 -0.0024831032 -0.07625302 -0.11814153 -0.05373598 -0.06783017 -0.01969413
0.03703228 0.05889627 0.04303401 0.008794443 -0.030617723 -0.1111119 0.03439428 -0.031163778
0.004561314 0.0042912634 0.054475274 0.01185966 0.0031368795 0.028611058 0.012554023 -0.021491736
-0.036728904 -0.020566551 0.019394252 -0.0074340985 -0.014448615 0.014535297 -0.0716366 -0.06449827
-0.116686225 -0.075657 0.015749358 0.04782921 -0.078107655 -0.07879752 -0.11936478 -0.18992093

fnet.conv1.bias f4 [32]
00000000: 7a9e 86bc 5dff 7fbc b054 27bc 5157 34bd
00000010: 6cc6 10be 10fc b93d c506 14bc 2e1f f1bc
00000020: bc6f 643d 4f47 a13c dafa 1d3e 2e5e 6abc
00000030: 8211 89bd 9ed3 10bd f91d 69bd b139 0c3d
00000040: 840a 963b 6a5f b13d d99d 033e 6b9a 53bb
00000050: ffa6 813d df0b acbc 35c9 ebbc 159f 2b3d
00000060: d70c bf3d e3eb 8b3c 7bbc 84bc 6924 b23d
00000070: 0eac 293c 4466 adbc a7a1 9dbd 81b3 01bd
-0.01643299 -0.015624848 -0.010213062 -0.044028584 -0.14138192 0.0908128 -0.009034817 -0.029433813
0.05577062 0.019687323 0.15427724 -0.014304681 -0.066927925 -0.035358064 -0.05691335 0.034234706
0.0045788903 0.08660777 0.12853183 -0.0032288085 0.0633068 -0.021001754 -0.028782466 0.04189976
0.09328621 0.017080253 -0.016203156 0.08698351 0.010355962 -0.021166928 -0.07696848 -0.03166533

fnet.layer1.0.conv1.weight f4 [32, 32, 3, 3]
00000000: 2941 a8bd e289 13be e84f 07bd 2445 39bd
00000010: e07a 7bbc bfa8 823c e584 643c 61fd 0bbe
00000020: 56e2 81bd e9f6 6abe 88fb e1bd f465 10be
00000030: 44a8 3f3d d543 bb3d 4eab 50bd 63a7 eabc
00000040: ee72 1ebe 216b 993e 3b8b 8a3c cbff fcba
00000050: 8487 7bbd c7e6 1c3e ed51 b2bd 8e0c debd
00000060: ca45 29be 59bc d1bc 9084 c63d 4a8d 673c
00000070: 1ce5 dfbc 46cc cf3d 0ccb 903d 3826 39bd
00000080: 73ef 453e 7329 13ba 6046 06be 3d6f 3dbd
00000090: 7d0b 053e 8a76 efbc 4b4f 9b3d 42af 1b3d
000000a0: c00d cfbc 3c57 833d 27d7 cebd 1dbc efbd
000000b0: a44a 83bd fbc6 fa3d d68f b73e 89a8 3e3e
000000c0: 0ea2 7dbd f004 25be 09bd 013e 29de 9ab9
000000d0: 3e3f 12be c953 30bd d5cd 7f3d 5a54 5d3e
000000e0: 4303 453e 036d a73c 5645 06bd fe01 b7bd
000000f0: 1266 4ebe 5443 50be e5a6 b7bd c58f 5ebd
00000100: ba84 1c3e 7fd2 8d3d 6fdd 583c 6519 8c3d
00000110: 469b 3b3d bf23 80bd ee1a 313b e174 0b3c
00000120: 6ee7 81bc bf50 433d 8abf 70bb dc3d 9abc
00000130: c88f 353d 9663 06bd a989 14be ec27 a93d
00000140: a019 683c d136 7ebd 985e 363d 9fa1 92bd
00000150: 52e2 47bd 4de8 aebc b984 f8ba f3c4 793d
00000160: 3993 08bb e1f6 4dbd 6537 8b3d 6c3b 033c
00000170: 74e6 753b fb9f 2c3d acbf df3b 19a0 35bd
00000180: 1d00 5fbc fe74 ea3d b9f4 d63d 00f5 f13d
00000190: d2c2 3b3e cc9b 1cbd cca5 d4bc 9f61 093d
000001a0: 6ab6 a33b 861a 583d 9d0e 8cbd 25a8 be3d
000001b0: 5ce4 463e af49 63bd cc11 87bd 7d08 013e
000001c0: 265d 83bd 8965 8dbd 61b1 3a3d e067 123c
000001d0: 7d97 49bd 1156 e73d fc71 d9bc 11ef 0cbe
000001e0: e25c 43bd 3b16 2c3d 27f9 963b 0f88 cd3c
000001f0: 4131 333d 6a08 95bb b73b 6ebd b4b5 e0bd
00000200: 3182 cbbd 833b b33d ca32 2d3e e785 b8bd
00000210: 9123 7d3d 9cbc 623e 9392 013e c5f6 0fbe
00000220: 4b75 b0bd 7ac6 8bbd 72b3 d43d 9a56 83bd
00000230: e879 33bc f287 30bd ef36 0f3c 7ce9 e13c
00000240: 7e8b c33a 7da0 263d ab26 03bd fff9 82bd
00000250: f786 52ba e30a 91bd 89e7 8fbb 5002 593e
00000260: 08fb 95bc f76d 24be d3d0 fdbd 24c4 b23c
00000270: 498c 9c3c a370 943d a7df 36bd 2189 1b3c
00000280: 898c 583d b928 0abd fd88 98bc 33f4 b8bd
00000290: cb78 40be a8e3 e2bd 0f06 18be 1ec1 163e
000002a0: 7adc e8bb ae8f 403e 7590 da3d 1810 583c
000002b0: 9226 d33d 37f9 2b3d 7d70 abbd fb84 403e
000002c0: 0b67 5a3c 960e 37be df09 27be fc7c babd
000002d0: 92d4 cdbc 6d6d e13d 417b 313c 5e5b febc
000002e0: 7525 263d 4780 87bd b766 083d c0da 573d
000002f0: 66a8 0abe a12e 993d 8393 d0bd 0f46 823d
00000300: 06c1 dabd 0138 c6bd e29b 67bd 0a40 aebd
00000310: da12 b33c ac7f b2bd 9ad1 48bd 2a52 a0bc
00000320: 7e29 7dbd 763a 01be 30a5 0b3e 4c50 8d3d
00000330: fca0 ac3d 242d 203c 7a77 5fbb e716 c1bd
00000340: 2e36 70bd 3108 7d3d 3ae2 d4bd abda f23d
00000350: f070 813d 18e9 e13c 4333 b03c 5bcc 243d
00000360: 0e33 c3bd 6d6d e63c 60bb 2a3d 52b4 fbbd
00000370: 92a1 cb3b 1c8a 1bbc 2811 743d f0df 98bc
00000380: e416 1cbd 6c40 b73d 129b c3bd 6798 c73d
00000390: 4e9c ed3d f18a 9b3d 2943 32be bc4f 52bc
000003a0: 23ac a8bd d636 093d 8a92 c43d f347 85bc
000003b0: c8f0 283e d51e 26bd f22b d03c 3053 23bd
000003c0: c8fd 06be 6c65 00be bd6d b0bd a02d 563c
000003d0: 025b 803d 13f2 0ebd e016 223d d88b 813d
000003e0: 1e70 bc3d b4ad c9bd 80b2 cabd 295c 77bd
000003f0: 5e73 793c 5112 bdbd ed2a 7c3c 258b 513d
-0.08215553 -0.14408067 -0.03303519 -0.045231953 -0.01534912 0.015949605 0.0139477 -0.13670875
-0.06341998 -0.22945751 -0.11034304 -0.14101392 0.04679133 0.09143797 -0.05094462 -0.02864427
-0.1547353 0.29964545 0.016912093 -0.0019302306 -0.061408535 0.1532241 -0.08707032 -0.10842238
-0.16530529 -0.025602506 0.09693253 0.014132807 -0.027330928 0.10146384 0.07069978 -0.045202464
0.19329624 -0.00056137814 -0.13112783 -0.046248663 0.12992664 -0.029231329 0.07583483 0.038008936
-0.025275111 0.06413123 -0.10099631 -0.11705802 -0.06410721 0.12244984 0.35851926 0.18618979
-0.061922126 -0.16115165 0.12669767 -0.0002953869 -0.14281937 -0.043048654 0.062452156 0.21614209
0.19239525 0.020437723 -0.032780968 -0.08935927 -0.20156124 -0.20338184 -0.089673795 -0.054336328
0.15285006 0.069249146 0.013236388 0.06840781 0.045802377 -0.06256818 0.0027024108 0.008511753
-0.015857425 0.047684427 -0.003673526 -0.018828325 0.044326574 -0.032809816 -0.14505638 0.082595676
0.014166266 -0.062063996 0.044523805 -0.07159733 -0.04879982 -0.021351004 -0.0018960453 0.06097884
-0.0020839705 -0.05028427 0.06797675 0.008009773 0.0037521394 0.042144757 0.006828269 -0.044342134
-0.013610867 0.11448096 0.10495896 0.11814308 0.18336037 -0.038234517 -0.025957964 0.033540364
0.0049961107 0.05275967 -0.06838725 0.09309415 0.1942305 -0.055490192 -0.06595191 0.12600894
-0.06414251 -0.06904132 0.045579318 0.008935899 -0.049216736 0.11295713 -0.02654361 -0.13763072
-0.047696 0.042013388 0.004607338 0.025089292 0.043748144 -0.004548122 -0.058162417 -0.10972157
-0.099369414 0.08751585 0.16913906 -0.09009915 0.061801497 0.22142261 0.1265357 -0.14058979
-0.08616122 -0.06824966 0.10385789 -0.06413002 -0.010954358 -0.043098398 0.0087411245 0.027577154
0.0014918891 0.040680397 -0.0320193 -0.06395339 -0.00080309756 -0.070821546 -0.004391615 0.21192288
-0.018308178 -0.16057573 -0.12393346 0.021822043 0.019109862 0.07248046 -0.044646885 0.009493143
0.0528684 -0.033730242 -0.018620009 -0.09030952 -0.18796079 -0.11078578 -0.14846061 0.14722106
-0.007106361 0.1880481 0.10672084 0.013187431 0.10310091 0.041985717 -0.08371065 0.18800728
0.013330231 -0.17876658 -0.1631236 -0.0910587 -0.025125775 0.110071994 0.010832609 -0.031049427
0.040563066 -0.06616264 0.03330108 0.05269885 -0.13540801 0.07479597 -0.10184386 0.06361019
-0.106813475 -0.09678651 -0.056545146 -0.08508308 0.021859575 -0.08715758 -0.049028017 -0.019570429
-0.06180715 -0.12619957 0.13637233 0.06900081 0.08429143 0.009776387 -0.0034098313 -0.094281964
-0.05864542 0.06177539 -0.10394712 0.11858114 0.06320369 0.027576968 0.021508818 0.04023395
-0.09531222 0.02812835 0.0416826 -0.12290253 0.006214329 -0.009493377 0.059586674 -0.01866147
-0.038107768 0.08947834 -0.09551062 0.09745865 0.116020784 0.0759486 -0.17408432 -0.012836393
-0.082359575 0.03349956 0.095982626 -0.01626966 0.16498101 -0.040556747 0.02541158 -0.039874256
-0.13182747 -0.1253869 -0.08614681 0.013072401 0.06267358 -0.03489883 0.039572597 0.06325501
0.09201072 -0.09847584 -0.098973274 -0.060390625 0.01522526 -0.09232009 0.015391094 0.05115809

fnet.layer1.0.conv1.bias f4 [32]
00000000: 7bbc 8ebc 6de7 eebb 1c8a 22bd 17e9 babc
00000010: cbd1 7f3c ab22 d8bb c4b4 b6bc 09ec 083d
00000020: 21f9 193d fb2d 7abc 65b2 073d c150 203d
00000030: 0ed7 41bb aa1f 8ebd 2380 6a3c fa4d 033d
00000040: 1169 ebbd 73a5 59bb af95 cc3c 7310 823d
00000050: 9e0f 0ebd 9ee4 7d3c cb6d f53d 7484 35bc
00000060: ed6a 75bd c979 453d 8693 56bd 85fb ddbc
00000070: 8211 783d f91b 13bd ddca ebbc a014 b6ba
-0.017423859 -0.0072907717 -0.039682493 -0.022816224 0.015613983 -0.0065959296 -0.022302993 0.033428226
0.037591103 -0.015269752 0.033129115 0.039139513 -0.0029577645 -0.06939633 0.014312777 0.032056786
-0.11494649 -0.0033210188 0.024973718 0.06350794 -0.034682862 0.015496401 0.11983832 -0.011078943
-0.059916425 0.048211847 -0.052386783 -0.027097473 0.06056357 -0.03591535 -0.028783256 -0.0013891645

fnet.layer1.0.conv2.weight f4 [32, 32, 3, 3]
00000000: c391 bc3d a49f 253e be42 4d3e 6cfc 903d
00000010: 8c1f 7abc 2dd5 c4bd 4bf5 823e fd06 543e
00000020: aa67 073e 6588 5abd 4be9 123e 6599 89bc
00000030: cf1e a53d ae8b ba3d 910b c53c 06f6 b13d
00000040: 452e a43d a2a5 d4bc 855f 82bd ef0f 55be
00000050: d25d f0bd 9c49 3f3e bca5 4bbb dc6f 593d
00000060: c5e8 d83d 7522 223d bd2b 5f3e 03fc 21bd
00000070: b371 a53b 36b0 613b af33 cb3d 6868 dcbd
00000080: c406 4e3d 3701 6c3d 6fa6 743c dec3 283d
00000090: 920e ae3d 69f1 83bc afa6 06bd 3f9e 8d3b
000000a0: 871d e1bd adb7 73bc 8322 1c3e 85a6 013e
000000b0: bebd 08be 86f2 783d 2e28 c0bd f3e6 4fbe
000000c0: 6cac 81bd cc2b bfbd 5e78 bcbc aabc babc
000000d0: cc01 51be be02 253d a229 ecbc 1e5e 313e
000000e0: 8dc6 c9bd cac4 5ebe fafe b43c 422f d8bc
000000f0: 999b d6ba 9d0d a33d f756 8abc f59a 29be
00000100: 2a15 e0bc 9728 353d ce08 043d d9e6 7a3c
00000110: 53ba 653d 890c 963d fcd4 3b3e 50a6 e23d
00000120: 0a73 c43d 8594 023e 7ce5 fabc 752e a63d
00000130: 3546 283e 5b0a 1bbd 213c 0abe 2cc6 b4bc
00000140: 7a97 35bc 8dd4 c6bb 0356 cc3c 89d7 23bd
00000150: 53b6 38bd 1b82 30bd bc0b 6f3d a7cc 183d
00000160: 71b4 803d d4c6 a1bc fce6 19be 7155 13be
00000170: d64b abbd 1739 a73e c0ea 8dbc 512d 4b3d
00000180: e78a 4b3d 7b9a cd3d 0fb7 ba3c a3f6 27be
00000190: 5990 cdbd ac0c d0bd 1410 e4bc da23 b0bd
000001a0: 0975 913c 7e4a bf3c 9779 123e 7ce5 f43c
000001b0: ced0 e8bd 2c20 71ba 40c5 cbbb e558 9f3d
000001c0: cf5f 9ebd 75e9 a6bd 0125 523d 412d 82bd
000001d0: 068a 22bd 03b1 8b3d 96b0 f5bc dd92 163e
000001e0: 7369 28be 0258 47bd b746 e1bd 1fb0 9fbd
000001f0: 5b7f 263e a375 b03d 5585 21bd 80d2 ff3c
00000200: 7b6a 163d 4df3 9dbd a92e 54bc 5b41 1d3b
00000210: 2003 87bd 1787 eebd aba9 54bd febd e93c
00000220: db9f a33d 1f82 393d dffa d9bd f4df 883d
00000230: e9aa f33c 3ae4 2ebd 82af efbb 9987 d33d
00000240: 6fd1 9fbc 8c0a 8dbd 6a63 dfbc 3feb 08bd
00000250: b07e 1ebb 4622 67bd 5adc a83a e80d c13d
00000260: 2c25 9b3d 6834 7d3d f0d3 f83c 0a1c b43d
00000270: d6c5 babd 4ae3 b2bd 8af4 183e 8f00 c4ba
00000280: 5835 9fbd 099a 0dbe 1f0c 903d e6fd 74bd
00000290: be98 dfbc 90f0 a3bd ef76 853d 49fc ee3d
000002a0: 7ca2 503d afb2 0a3c 3736 cf3c 6feb 1f3e
000002b0: 78ab 4f3b 4076 943d f89a 27be 20c7 38be
000002c0: a4b7 b13d 9203 013e 22ad b4bd cfbc 963d
000002d0: 032b 0c3e 87f9 36bb 16ed da3d 5209 90bd
000002e0: f694 f43d 79f6 a3bd 2e74 d1bd a1a0 d3bd
000002f0: 06b7 ed3a 0cc1 963d 2134 073e e165 463d
00000300: 775d 713d 68fb df3d b651 3bbc 567a 84bd
00000310: ed0b d5bd 2f6b e9bd 17c6 bcbd 39ff e4bc
00000320: 5509 71bd aa63 b23d 01b3 6cbd 9271 ebbd
00000330: 644c 503d 602a 00bd 33e9 cf3b 96da 433e
00000340: 5b7a 7e3e f17c 1b3e 70bd 733c 9d1b 7cbc
00000350: 14c6 cd3d ab58 8fbe c3ca 19be 3510 c43c
00000360: 456b 53bd 8954 45bd e2d1 0d3d e239 dfbd
00000370: c400 5abc e0ec bdbd 659d 0bbe dd72 433c
00000380: d9b1 473e 627a 0e3c 674e 95bd 8f14 a93c
00000390: d7d0 073e 901a 173e 05c2 22bd c4e4 86bd
000003a0: 0582 aa3d 3bb6 90bd a5d0 91bc 4601 d73c
000003b0: 7116 fcbd 3021 023d 6981 59bb fcc6 2dbd
000003c0: 2531 433e b7a4 043d db61 b23c 7982 2bbe
000003d0: 9893 1ebe 0c13 d0bd 2cf5 fd3c cbf2 db3d
000003e0: d4bf 333d 2c26 9dbb 7505 2cbb 200f dabd
000003f0: dfa8 233d 065b 18be af3f 2a3b f999 c1bd
0.09207489 0.1617418 0.20044991 0.07079396 -0.01526631 -0.096109726 0.2557777 0.20705791
0.13223138 -0.053352732 0.14346807 -0.016796777 0.08062517 0.09108673 0.024053367 0.08689503
0.08016638 -0.025957886 -0.06365875 -0.2080686 -0.11736645 0.18680423 -0.0031074127 0.053085193
0.10591272 0.039583642 0.21794029 -0.039546978 0.0050489544 0.0034437305 0.09921967 -0.107621014
0.05029942 0.057618346 0.014932259 0.04120242 0.08498873 -0.016106324 -0.032873806 0.004321843
-0.1099196 -0.014875335 0.1524754 0.12661178 -0.13353631 0.060778163 -0.09382664 -0.20302944
-0.06331715 -0.093345255 -0.023006614 -0.02279504 -0.20410842 0.04028582 -0.028828446 0.17321059
-0.09852324 -0.21754757 0.022094239 -0.026389722 -0.0016373276 0.07961581 -0.016887171 -0.16563018
-0.027353842 0.044228163 0.03223496 0.015313827 0.056085896 0.0732661 0.18342966 0.11066878
0.095922545 0.12751968 -0.030627005 0.0811433 0.16433032 -0.037851673 -0.134995 -0.022067152
-0.011083478 -0.0060678185 0.024943357 -0.040000472 -0.045095753 -0.04309283 0.0583608 0.037304547
0.062844165 -0.019748129 -0.1502952 -0.14388062 -0.08364074 0.32660744 -0.017323852 0.049603764
0.049693014 0.100392304 0.022792367 -0.16402678 -0.10037298 -0.10158667 -0.027839698 -0.08600588
0.017756002 0.02335095 0.14304195 0.029894583 -0.11367951 -0.00091982144 -0.0062185824 0.07780627
-0.07733118 -0.08149997 0.05130482 -0.06356288 -0.03968241 0.06820872 -0.02999143 0.14704461
-0.16446476 -0.048667915 -0.10999816 -0.07797264 0.1625952 0.086161874 -0.039433796 0.031228304
0.03672264 -0.077124216 -0.012950578 0.0023995254 -0.06592393 -0.1164686 -0.05191962 0.028532978
0.079894744 0.04529011 -0.10643553 0.06683341 0.029744582 -0.042698123 -0.0073146233 0.103285976
-0.019509045 -0.06886777 -0.027269084 -0.033427473 -0.0024184398 -0.05642917 0.0012883053 0.094264805
0.07575449 0.061817557 0.030374497 0.087944105 -0.091197655 -0.08734758 0.14937034 -0.001495378
-0.077738464 -0.13828291 0.07033562 -0.05981245 -0.027294513 -0.08004868 0.065168254 0.11669213
0.050936207 0.008465453 0.025294406 0.15617155 0.0031687897 0.07249117 -0.1636771 -0.1804471
0.08677605 0.12599018 -0.08822085 0.07360231 0.13688283 -0.0027919726 0.10689752 -0.07033028
0.119424745 -0.08005995 -0.10227238 -0.10333372 0.001813621 0.073610395 0.1320348 0.048437003
0.058927026 0.10936624 -0.011433056 -0.06468646 -0.10402665 -0.11397397 -0.0921747 -0.02795373
-0.05884679 0.08710416 -0.0577879 -0.11496271 0.0508541 -0.031290412 0.006344938 0.19126353
0.24851362 0.1518438 0.014876708 -0.015387443 0.10047546 -0.27997336 -0.15018754 0.02393351
-0.051615972 -0.048176322 0.034623988 -0.10899712 -0.013305847 -0.09273696 -0.1363426 0.011929241
0.19501437 0.0086961705 -0.07290345 0.020639686 0.1326326 0.14756227 -0.039735813 -0.06586602
0.083255805 -0.07066008 -0.017799685 0.026245724 -0.12308968 0.03176993 -0.0033188707 -0.042426094
0.19061716 0.032383647 0.021775177 -0.1674899 -0.1548599 -0.10159883 0.031000696 0.107396685
0.043884113 -0.00479581 -0.002624837 -0.10647416 0.03995597 -0.14878473 0.00259779 -0.09453196

fnet.layer1.0.conv2.bias f4 [32]
00000000: e0ef 5e3d 5035 0ebd ada8 103d 344f 2abd
00000010: 539c 8b3c c2e6 4dbc a290 41bd 17bb 89bd
00000020: 14f2 85bd ec6a 74bd 69e0 38bd e729 b73d
00000030: 1427 f73c ce16 013d 99cb 763d 76ee 883c
00000040: 7829 6dbd e5f1 dfbc 71ba 18bd 6b4d 18bb
00000050: 80f4 4ebd bf4f 2f3d f447 783d f42b 27bd
00000060: d3ac e7bc 3834 f3bc 371f 60bd c1c1 cabb
00000070: 8083 60bd 3dca e0bc d276 13bc b82f 60bc
0.05442798 -0.03471881 0.03531711 -0.04157944 0.017042315 -0.012567224 -0.047257073 -0.06725138
-0.06540313 -0.05967228 -0.04513589 0.08943539 0.030170001 0.03151589 0.06025276 0.01671527
-0.057900876 -0.027337024 -0.03728718 -0.0023239504 -0.050526142 0.04280066 0.060615495 -0.0408134
-0.028280651 -0.029687986 -0.05471727 -0.006187648 -0.05481291 -0.027440185 -0.009000497 -0.013683252

fnet.layer1.1.conv1.weight f4 [32, 32, 3, 3]
00000000: d59f a53d a7c5 823d fe85 3dbe 9ad2 13be
00000010: 41e2 0fbe 7b09 04be 4b98 033e b704 64bd
00000020: aaf8 0cbe e984 63bb ba77 2dbe 42ce 0fbe
00000030: 8043 653d 9419 a93b 2501 c4bc a57a 14be
00000040: 8702 e43c 1084 bc3d d6de c3bd e5fa 16be
00000050: e278 273e ef65 a3bd ac3c 193d 60c0 543d
00000060: 5ebd 25bc 292b 2dbe 521a ae3d b32f cb3c
00000070: 3feb 263d 5318 953d fb2c 18be 929a 07be
00000080: ef27 de3c a7a0 3bbd 093d 38bc 040f 3e3d
00000090: 8dcb 863c 5983 273e 40b6 683d 0059 203d
000000a0: 469b a3bc a56a 8ebd cf7e e1bd c19b 64be
000000b0: 7050 32be 2f47 3f3d 7ac6 833d 19f9 e23d
000000c0: bd5c 8fbd 06ba 97be a729 3dbe 739a 963d
000000d0: 93d5 093e eb7c 1f3e 7bc5 063e 1223 1c3e
000000e0: 3b94 0a3a b1ca d43c 681b 033a 68b9 99be
000000f0: 6b99 88bb 393a 14be 860c 26be f5e3 0c3e
00000100: 8332 713c f17e 1b3e 01cb ecbd e18f 49bd
00000110: 7289 4dbe 318b 603d ae6a 413c 0d9e dbbd
00000120: 2edd 243d ed1e 90bd 59c2 8b3a d78d 7c3c
00000130: 2dd6 d5bd 12c5 9cbd 677a f83a 837c d53c
00000140: 19b0 8b3d 3508 5ebe ca38 1dbd 16dd 9abd
00000150: 6d8e 26bd c9f3 273e 6382 073e db21 0ebe
00000160: 9ca1 cd3c 4763 003d e6d9 82bd 019e 32be
00000170: acd9 d9bd b8a6 073e f2be 1fbd cbf5 25be
00000180: 7afd cd3d fb90 343e d643 ba3d ec91 5c3d
00000190: 8ed0 93bd 7068 82bc e74f f0bd 651b 663c
000001a0: 5fd4 6c3d c6c5 613d 21f3 c63d 8a77 653d
000001b0: ddf3 4fbd 7ac2 2d3e 43a5 e53c 001b debd
000001c0: bf6d a33d 26af f5bd 1a88 32bc 7a3e 023d
000001d0: e2be 323d a3ce 8cbc 8ce8 a6ba 1ba2 41be
000001e0: a313 913c 3630 113e 59b0 00bc b89b 283d
000001f0: 8abe 64bc f787 0cbd cc52 743c 86da 88bd
00000200: d092 033c 8edb 853d 0544 073d 529c 2abd
00000210: 6a50 853d a3c8 163e 82ab 1f3d b6d5 e83c
00000220: 7205 0abd a1d2 33be c4e9 0d3d e114 13be
00000230: 7c78 073e a201 213d 3d49 fa3d 2eb9 77bd
00000240: 6a2d 7abd e21e 023d 6d4e 14bd 255d b73d
00000250: e210 9d3d 17a9 573e 7290 6a3d a98e 3c3e
00000260: d486 c9bb 02e4 4d3d 3294 d6bc fcbe a23d
00000270: d7df 3933 c268 483d 0bdf c33d 48c6 c5bd
00000280: fc3c 5a3b e55f 92bd 3915 b2bc b765 22bd
00000290: f343 c6bc 2301 193c fc8e 093e 8b29 623d
000002a0: 94ec df3d 9ab0 903d b582 64bd 1d53 913d
000002b0: b03b 4c3d b676 533d 398d e03c a235 4abe
000002c0: 7da9 693d b34f 243c 5086 e6bd f666 963c
000002d0: 43b9 93bd daf8 d33d d2c0 273d e38f b8bc
000002e0: 1237 233d b889 03bc a9cc 45be 2211 77bd
000002f0: 700f aa3d 1d64 f23d ab5c d13d 26a8 93bd
00000300: dd37 d0bd 75b2 ebbb 1d34 86be e93b 33be
00000310: b415 f63c 3ffd 073d dc4e 09be c4b3 b03d
00000320: aa48 9c3d cd7f c4bd 02b1 e0bc 21ce cfbb
00000330: abdf 873d 6931 2d3d 6d62 bbbb 3665 b23d
00000340: 540d 803d af3e ad3c f262 8fbd 3333 85bd
00000350: 28d4 84bd 7871 df3d af1b 1abd 3b1c 43bd
00000360: 7daf da3d 20c6 493d 6965 e1bd 3b18 173e
00000370: e863 08be 0925 06be 40b9 acbd a94f 53be
00000380: aa61 9abc 34f7 c1bd 11e8 07be 9823 973d
00000390: e2f6 bebd b483 d9bc feb4 29bd 9cca 17be
000003a0: ac2e d53b b770 3a3b 091e 113e 9ee2 0a3d
000003b0: 19b2 5dbd 50c4 17be f8f3 eabd 32c3 2f3d
000003c0: b6f8 0ebe aa3d 3a3d e7db fe37 102f a23d
000003d0: e6a0 113e e74a 47bc 7207 68bd 5849 16bd
000003e0: 0132 09bd 3b01 92bc e514 49bd c544 3eba
000003f0: 4289 5cbd c8e6 9bbd e9e2 5c3d 2adc 5fbd
0.08087126 0.063853554 -0.18508145 -0.14435807 -0.14051153 -0.12894242 0.12851064 -0.05566856
-0.13766733 -0.0034716672 -0.16940203 -0.14043525 0.055972576 0.00516052 -0.023926327 -0.1449991
0.027833236 0.092048764 -0.09563987 -0.14744146 0.16354707 -0.07978427 0.037411377 0.051941276
-0.010115949 -0.16910996 0.08501114 0.024803018 0.040751692 0.0728003 -0.14860909 -0.13242558
0.027118651 -0.045807507 -0.011245021 0.04640104 0.016454482 0.16358699 0.056814432 0.039147377
-0.019971501 -0.069539346 -0.11010515 -0.2232504 -0.17413497 0.046698745 0.06434341 0.11082668
-0.0700011 -0.29634112 -0.1847292 0.073536776 0.13460378 0.15574996 0.1316127 0.15247753
0.000528637 0.025975557 0.0005001337 -0.30024266 -0.0041686795 -0.14475335 -0.16215715 0.13758834
0.014721516 0.15185143 -0.115621574 -0.04920948 -0.20071962 0.054820243 0.01180522 -0.10723505
0.040249996 -0.070371486 0.0010662779 0.015414677 -0.104412414 -0.07654776 0.0018957377 0.026060348
0.06820697 -0.21682818 -0.038384236 -0.075617 -0.04066317 0.1640159 0.13233332 -0.13880102
0.025101475 0.03134468 -0.06389217 -0.17443086 -0.10637221 0.13247192 -0.03900046 -0.16207044
0.100581124 0.1763343 0.0909497 0.0538501 -0.07217513 -0.01591894 -0.1173399 0.014044617
0.05781972 0.055120252 0.09714342 0.056022204 -0.050769676 0.16968718 0.028032904 -0.108449936
0.07979917 -0.119962975 -0.010896707 0.031797864 0.04363907 -0.017188376 -0.0012734099 -0.18909495
0.017709559 0.14178547 -0.007854545 0.04116413 -0.013961444 -0.034309354 0.014912318 -0.06682305
0.008030608 0.06536017 0.033023853 -0.041652985 0.065094784 0.14724974 0.038981922 0.028422218
-0.0336966 -0.17560817 0.034646764 -0.14363433 0.13229555 0.039308198 0.12221 -0.060479335
-0.061078466 0.031767733 -0.036207605 0.08953313 0.07669236 0.21060596 0.05726666 0.18413796
-0.006150106 0.050266273 -0.026193712 0.07946584 4.327725e-08 0.04892803 0.095640264 -0.0965696
0.003330051 -0.07147197 -0.021738635 -0.039647784 -0.024202323 0.00933865 0.1343345 0.0552154
0.109337956 0.07064934 -0.055788714 0.07095931 0.04986161 0.051626883 0.02741109 -0.19747022
0.057046402 0.010028767 -0.11256087 0.018359642 -0.0721307 0.10350199 0.040955372 -0.022529548
0.03984744 -0.00802844 -0.19316353 -0.060319073 0.08303726 0.11835501 0.10222753 -0.07209806
-0.10166905 -0.0071929046 -0.26211634 -0.17503323 0.030039646 0.0332005 -0.13408989 0.086280376
0.07631047 -0.095946886 -0.027428154 -0.006341711 0.06634458 0.04228345 -0.0057185204 0.08710711
0.06252542 0.021148054 -0.07001294 -0.06503906 -0.06485778 0.10910314 -0.037624057 -0.047634345
0.10678003 0.049261212 -0.110056706 0.14755337 -0.13319361 -0.13100065 -0.08433771 -0.20635857
-0.018845398 -0.094709784 -0.1327212 0.07379836 -0.09324433 -0.026552059 -0.041432373 -0.14823383
0.006505808 0.002844853 0.14171614 0.033907525 -0.054124925 -0.14820981 -0.114723146 0.042910762
-0.13962063 0.045468964 3.038156e-05 0.07919133 0.14221534 -0.012163854 -0.056647725 -0.03669104
-0.033494953 -0.017822852 -0.049092192 -0.0007258172 -0.053841837 -0.076123774 0.053927336 -0.054653324

fnet.layer1.1.conv1.bias f4 [32]
00000000: 7226 23bd a9d7 5b3d 3e13 2b3d 5949 0fbc
00000010: d7d2 12bd 7bbe d9bc 1a18 903c 61c7 37bc
00000020: 0701 653d fa35 84bd c338 283c 0f65 e4bb
00000030: e24f 813c 88b7 58bc 976e 60bd 9e71 57bd
00000040: a1e7 33bd 2a10 9d3c 6110 3d3d f914 0b3b
00000050: 9e0f 113a bd1b cdbc 1949 91bd 0d50 31bd
00000060: 3398 6a3c db4c 78bd 236b bdbb b4ad bb3c
00000070: bcb1 063d dc3c 47bd d7cb 883d e251 cebc
-0.039831586 0.053672466 0.041766398 -0.008745515 -0.035845604 -0.026580086 0.017589618 -0.011216969
0.055909183 -0.06455608 0.010267439 -0.006970055 0.015785161 -0.013227351 -0.054792967 -0.05259859
-0.04392207 0.019172747 0.0461582 0.0021222217 0.0005533638 -0.02503764 -0.070940204 -0.043289233
0.014318514 -0.06062017 -0.005780594 0.022909977 0.032884344 -0.048642024 0.06679504 -0.02518553

fnet.layer1.1.conv2.weight f4 [32, 32, 3, 3]
00000000: 8b41 11be 981f a4be ccbc 1ebe 9105 343e
00000010: 9d77 ab3d 767f 7e3d e272 083e 938a 243e
00000020: c23d 053e a9cf a23d 46c1 4e3d c0c2 babc
00000030: 0e56 173c 00b8 c9bd 4643 c6bb a404 673d
00000040: 9baa b03c dd8e 6d3e 243c a1bc 4c04 da3d
00000050: f633 953d 9bb4 113d ce55 c0bc 9862 dbbd
00000060: c723 9cbd 9b26 16bb d403 a1ba d096 acbc
00000070: a38b 093e 8380 c0bc 6668 65bd fed5 653c
00000080: 2576 473d ff68 17be 2b60 49be a0a7 2ebd
00000090: e100 353d 0d3f 96bd ab63 dbbd 2281 453d
000000a0: d938 86bd bbb5 12bd 15ae 683d e7b1 08bd
000000b0: 25a1 183e df4b 773d 33c5 f7bc 6314 d23c
000000c0: ba24 01bd 22d9 473d 44d9 d93c ae85 d5bd
000000d0: e754 98bd f4a2 e139 af5b 903d 999a 5f3d
000000e0: d594 1f3e 7c23 a93b 14b6 e23c 0adf 9b3d
000000f0: f0c5 e3bd e278 12bc 509e 2fbe 2e77 c3bd
00000100: 412a 3f3d b791 9c3c 9c67 09be 244c 283c
00000110: 2172 a3bd f8a5 2f3e 783d c83c bd8c 0d3e
00000120: 52f2 c4bd f199 c83b 36df 823e 5c0a 39bd
00000130: b2e3 a1be ebeb 54be 9b5e 543e 657f 773d
00000140: 71c3 0cbd aa29 7c3b 1372 48bc 4cc4 f4bd
00000150: 1f95 983c 7e1b 0bbe cbe3 d2bc 74e4 883d
00000160: 2597 1d3e b694 fa3c 643d aabd cdc0 88bd
00000170: d67d c7bd b691 0f3e ed1f a73d 89f6 8c3d
00000180: 5f63 d6bd 742c 1e3e d50f f53d 9031 a5bd
00000190: 3bb2 89bd 14e8 e8ba c79d ea3d 7d43 3f3d
000001a0: 0232 143d 4d5a 2b3e a017 a43e 3c86 8f3e
000001b0: 3b62 e7b9 e786 59be 9179 b03c 5d75 d4bd
000001c0: 581a af3d 1bfe 9bbc 5df7 0f3d d62d 1e3e
000001d0: cacb 7fbc 6698 47be 134d 86bd 3ac4 613d
000001e0: f390 033e d9d9 debd 7eaa b33d 6272 8bbd
000001f0: df94 de3c ff4c df3d 7d9b 52be a753 9ebd
00000200: f73f 053e 8afc eabd eeae d8bd 6995 99bd
00000210: dae3 6ebd 69cb 183d 89f6 21be e937 0f3d
00000220: fca3 173e 59cb 373b 8308 bdbd 2b09 82bd
00000230: 0f94 35bc 32b7 85be 0f12 85bd a4a2 0cbb
00000240: 7ae8 aabd b034 20be b2f8 afbd 8adf ac3d
00000250: 5bfd b03c 310b c6bc 8de0 31bb b179 fc3d
00000260: 6d56 513e ea00 633d 3d66 dc3c 97c2 b73c
00000270: 667a 04be 8031 7abe 2888 b0bd a2b9 c63c
00000280: 071a 073e 3a0c b1bd aa4d f7bc f647 64bd
00000290: 2c1f 81bd 1296 94be 4f91 38bd 7f5a 5abd
000002a0: 7430 ab3c a7dc d9bd 56c2 b3bd 1ab6 683d
000002b0: daca 17bd b635 5e3d 730b 233e 5164 c93d
000002c0: a87f debd 4f46 febd 4d26 20bd c485 8cbd
000002d0: cdfb 0ebe b858 193c 650c bbbc 48dd ec3d
000002e0: 5c33 9fbd 74a0 ab3c 5f8b 253e ae30 1c3d
000002f0: 8707 343d b6bb e1bc 2175 d9bc d437 68be
00000300: 1b5b 4b3c 5d3b 7ebc 716a 52bc 8e7f 143e
00000310: 5bea 073d 0855 053d d297 b73c bdbc c33d
00000320: 1b7b 0b3e 545e e5bb 9237 81bd 0f4b bcbd
00000330: 8249 c0bc eed4 b73d cad8 15be e8cf f53d
00000340: d3f2 e23c 159f 8f3c 7d79 f53d e859 26bd
00000350: e363 f53d 1e44 6fbd 802e dfbd 406c e0bc
00000360: 7060 53bc 40a2 ccbc eb09 0c3d f961 3f3d
00000370: d79d 54bd 162b bf3d a05a 433d a6fb 71bc
00000380: a5fd 1cbe 1097 bebd 5ff0 bebc 1be4 4dbd
00000390: f91b 54bc 332e 9a3c 4cdf b2bd d51c 5fbb
000003a0: 908f 99bb 2dd1 aa3b de77 903c 91bb 253e
000003b0: ddb2 b2bd 19bb af3c 9f40 f6bd 48e9 dd3b
000003c0: 2998 6c3d dafc cdbd 7514 22be 92e7 10bc
000003d0: 74a2 17bd b5d8 8ebd ec67 a43c 333b 45be
000003e0: 9328 553c 1946 cb3d 0eba 633c 5131 6abc
000003f0: a179 8a3d ef48 ce3c e9da e8bd b9d2 393c
-0.14185159 -0.32055354 -0.15501708 0.17580248 0.08372424 0.062133275 0.13325074 0.16068487
0.1301184 0.07949764 0.05047729 -0.022797942 0.009236826 -0.09849548 -0.0060505 0.05640091
0.021565726 0.2319903 -0.019681998 0.10645351 0.072853014 0.03557263 -0.023478415 -0.10712165
-0.076240115 -0.0022911194 -0.0012284466 -0.021068007 0.13432173 -0.02349878 -0.056007765 0.0140280705
0.048696656 -0.14786147 -0.19665591 -0.04264033 0.04419029 -0.07336245 -0.107123695 0.048218854
-0.065538116 -0.035817843 0.056806643 -0.033372786 0.14905222 0.06037509 -0.0302454 0.025644487
-0.031529166 0.04879106 0.026592858 -0.10425888 -0.07438069 0.00043036754 0.07048737 0.054590795
0.15584119 0.005161701 0.027674712 0.07610901 -0.11121738 -0.0089399535 -0.17150235 -0.09544216
0.046671156 0.019112451 -0.1341843 0.01027206 -0.07980753 0.17153156 0.024443373 0.13823219
-0.096165314 0.006121867 0.2556092 -0.045175895 -0.3161903 -0.2079312 0.20739214 0.060424227
-0.034366075 0.0038476982 -0.012234229 -0.11951503 0.018625794 -0.13584706 -0.025743386 0.06684199
0.15389688 0.030588489 -0.083124906 -0.06677399 -0.09740798 0.14020428 0.08160386 0.0688296
-0.10468172 0.15446645 0.1196591 -0.08066094 -0.06723448 -0.001776936 0.11455875 0.04669522
0.036180504 0.16733666 0.32049274 0.280321 -0.0004413294 -0.21242867 0.021542342 -0.10373948
0.085499465 -0.019042065 0.035148013 0.15447173 -0.015612552 -0.19491729 -0.065576695 0.055118777
0.12848262 -0.10881395 0.08772753 -0.06808926 0.027170597 0.10903358 -0.20567127 -0.07730799
0.13012682 -0.11473949 -0.1058024 -0.07499201 -0.058322765 0.037303362 -0.15816702 0.03496543
0.14808649 0.0028044789 -0.09230139 -0.06349405 -0.011082663 -0.2611633 -0.06497585 -0.0021459246
-0.08345123 -0.15645099 -0.08592357 0.08441074 0.021605184 -0.024175258 -0.00271419 0.12327898
0.20443125 0.055420794 0.02690422 0.022431655 -0.12937316 -0.24432945 -0.0861972 0.024258438
0.13193522 -0.0864491 -0.0301884 -0.05573269 -0.06304774 -0.29020745 -0.045060452 -0.05330896
0.020897128 -0.10637789 -0.08777301 0.05681429 -0.03705869 0.05425044 0.15922336 0.09833587
-0.10864192 -0.12415754 -0.039099026 -0.06861451 -0.13963242 0.009359531 -0.022833059 0.115656435
-0.07773468 0.020950533 0.16166447 0.038132362 0.04395249 -0.027555328 -0.02654511 -0.22677547
0.012411858 -0.015517083 -0.01284276 0.14501783 0.033182483 0.032551795 0.02241126 0.09557483
0.1362118 -0.00699977 -0.06309427 -0.09194004 -0.023472551 0.0897616 -0.1463348 0.120025456
0.027703678 0.01753191 0.11986063 -0.040613085 0.119819425 -0.05841457 -0.10897541 -0.027395368
-0.01290141 -0.02497971 0.034189146 0.046724293 -0.05190834 0.0933439 0.04769385 -0.01476947
-0.15331133 -0.09306157 -0.023307977 -0.050266366 -0.012946122 0.018820858 -0.08733997 -0.0034044285
-0.0046863034 0.005212924 0.017635282 0.16184832 -0.08725522 0.02145152 -0.12024044 0.006772194
0.0577623 -0.10057993 -0.15828116 -0.008844273 -0.03702016 -0.06974927 0.020069085 -0.19260864
0.013010162 0.099254794 0.013899339 -0.0142939845 0.0676148 0.025181262 -0.11369879 0.011341744

fnet.layer1.1.conv2.bias f4 [32]
00000000: 25f9 88bd f62c 403d c3a0 73bd 4552 9a3c
00000010: bd2b 163d 2757 f3bc bfb0 82bd 1fdc 503c
00000020: 1abf 163b 45b2 bb3c 3318 00bd 8431 72bc
00000030: 40be 003d bd48 e03c 77c9 0dbd 5aff 87bc
00000040: 87de 8b3c b0d3 28bd e27f 6ebd cc28 0d3d
00000050: 8a51 793c 49e3 103c be98 d5bb 9bf2 773d
00000060: 4dc5 163d 571b aa3d e189 7d3d 9f42 df3c
00000070: 163b f6bc 184b 193c 4ffa a53c 41bc 71bc
-0.066881455 0.046917878 -0.059479486 0.018838057 0.036662806 -0.029704643 -0.06381368 0.012747793
0.002300209 0.022912154 -0.03127308 -0.014782313 0.031431437 0.027378434 -0.03461596 -0.016601253
0.017073883 -0.041217506 -0.058227427 0.034462735 0.015217194 0.0088432515 -0.0065184524 0.0605341
0.036809254 0.08305996 0.06189907 0.027253447 -0.030057471 0.009356283 0.020260958 -0.014754356

fnet.layer2.0.conv1.weight f4 [64, 32, 3, 3]
00000000: 373e 07be 3de3 d7bd 75c3 bbbd e4e0 b03c
00000010: 7c18 543a 89fe 6a3d b653 253c d936 673c
00000020: 249c dbba 2792 59bd f2e5 14bd abdf 04bd
00000030: 55ff 47be feab 04bc 4b17 4abd 943c 753b
00000040: 353c 153b a09a b7bd 3cd0 0c3e 12f3 c03d
00000050: fdfa 1b3d 1dff 5c3e 0ccc 4c3e d84d 923d
00000060: 2e6b 5e3d 30b2 4d3e 8c15 c73d 3cf9 0d3c
00000070: 928b 8dbd 3522 53bc 9b9c abbb 3a3f 853d
00000080: 7b2c f4bd 3f50 173d 67e9 f0bd 3280 2ebe
00000090: c8c4 b83c a702 1a3e ba33 bf3d ba06 603c
000000a0: eb55 933d f929 fcbc fd1c d0ba 8c49 e6bb
000000b0: 5796 65bd ba05 8bbd 676b 153e 756e 073e
000000c0: 1a63 3e3d ccf0 e73d ea31 163d 4a42 793d
000000d0: 1ef9 263d d4fe e0bc 862e 133d 2313 1e3d
000000e0: 38f9 f03c 7dfc 523c 7016 033d 9d75 bcbd
000000f0: 7e22 fbbc efe8 57bd 3c8c 02be aa28 043e
00000100: fddc c1bd c687 5fbd cc59 48bd d905 7bba
00000110: 0e8d 103d 25a5 c0bb 9f11 a0bd 305f cf3c
00000120: f9f7 d43d 8f35 533d cd18 653d e4d4 53bd
00000130: 6663 2b3c 8222 4fb9 79f3 e43d 8cc4 0b3d
00000140: 6c9a a4bb 513b babd 2383 543d 641c c8bc
00000150: 2804 7cbd 46f0 893d 2b95 11b9 e4c8 50bc
00000160: cb6c 26bc 434f e0bc 9c70 c5bd e6a6 31bd
00000170: c71f 80bd 5eb8 af3b 710b b13d ca31 20be
00000180: c1c8 9f3d 5d13 9dbd 5679 59bd 7d0c 713c
00000190: 8db8 dfbc a18e 753d 544c 00bd 2559 88bc
000001a0: cbfb e2bb 59cd 073d 0fd2 63bd 0dcd 53bd
000001b0: 4cd7 acbc 7862 8dbd 95c0 22bd f921 833d
000001c0: 5234 213b 255a 063e 8e47 8b3d 4bd0 74bc
000001d0: 5737 8c3d a210 1f3c 3eeb 81bd 1cb3 ccbd
000001e0: 726b 2d3e f2eb 7ebc 8e1b aabd e081 ca3d
000001f0: 1786 b33b 2d36 3ebd 2a4f 38bd 9e71 c4bd
00000200: 8e75 ce3c 142e 9cbd fa2d 083d 71b3 cf3d
00000210: 0da0 4ebd d30d 073c 760a 223d b352 553b
00000220: 793b 9ebc edbf 80bd 7d00 7f3d a8bd 2b3d
00000230: 0376 dbbc f4df 73bd 23a5 2dbd 5893 bcbd
00000240: 71fa 5dbc 10a4 363c 33a3 92bd 4512 e3bc
00000250: d728 633d 1e6e a3bd f108 cd3b 3c40 93bd
00000260: 86b2 8f3d 05ad 80bd e068 083e 52d8 cd3d
00000270: e793 81bd b09e f53d 9ddd 88bd b73a 983d
00000280: 271b 103e 7b22 263e d044 1ebe 0442 c6bd
00000290: 0073 9ebd a9ca cbbd 45e4 81bd 03d7 20be
000002a0: 9ae8 713d 101c c9bc 8d86 ba3b 5c4c a9bd
000002b0: 6234 213d 7b89 f03c 20ea 2ebd 4703 6fbd
000002c0: 3e70 31be d001 8cbd 988d 74bb bb87 adbc
000002d0: ad9b 1bbe c484 52bd 218f b6bd 8e21 fbbc
000002e0: dd53 d4bd 7fdf 47bd a300 75bd 80b4 b7bd
000002f0: 8a55 1f3d 2fce 11be e773 993b 13f7 e9bc
00000300: 3d4e 9dbc 67f0 febd 056e 7bbd 982e 96bd
00000310: 97c4 36be fbbd f7bc b785 893d a035 15bd
00000320: 34a2 76bc e07f 633d be78 31bd b059 683b
00000330: 06e5 aa3c d22c 4dbd 5e77 8fbd 17d0 f03c
00000340: ca84 52bd 7fec cbbd b843 95bd d6a7 86bc
00000350: 8ff4 663d e409 50bd 9963 453d b2bb ea3b
00000360: e932 c53d 43aa 7f3d 47d5 9bbc 93d7 863d
00000370: d6ee 153e 0230 5fbc c6f9 3c3d 21ee 283e
00000380: 32c0 c9bc 79ee db3d 9d54 353e 4c71 a33c
00000390: fb03 7d3d 6d46 bb3d 18d0 27bc 33da 843d
000003a0: 1720 3e3d 0010 9c3d 35d4 f8bd 3bc4 e33c
000003b0: c3a4 eb3b 7c4b 79bd 35aa 943c 8af6 143e
000003c0: 4dce a9bc 8712 8fbd 500f b4bd 6b37 8f3d
000003d0: bbfb 01bd e730 63bd c306 383d f3b2 2c3e
000003e0: 3e89 7e3d 62ce 443d ccad a53b a388 743d
000003f0: 4fda 1d3d a3ba dbbd 1e81 99bd 6956 ebbc
-0.13207327 -0.10541389 -0.0916814 0.021591611 0.00080908067 0.05737165 0.010090759 0.014112198
-0.0016754908 -0.053117897 -0.036352105 -0.03243987 -0.19530995 -0.008097647 -0.04933862 0.003742014
0.0022771482 -0.08965039 0.1375131 0.09421362 0.038081158 0.21581693 0.19999713 0.07143754
0.054301433 0.20087504 0.097209066 0.008665379 -0.069113865 -0.012886574 -0.0052371747 0.065062
-0.119225465 0.036941763 -0.11763268 -0.1704109 0.02255477 0.15040074 0.09336038 0.013673479
0.07194122 -0.030781733 -0.001587778 -0.0070278104 -0.05605158 -0.06788202 0.14591752 0.1322573
0.04648123 0.11325225 0.036668696 0.060854234 0.04076492 -0.027465262 0.03593304 0.03859247
0.029415712 0.012877581 0.03200382 -0.092021205 -0.030656096 -0.052712377 -0.12748808 0.12906137
-0.09465978 -0.054572843 -0.048913762 -0.00095757615 0.03529077 -0.0058790618 -0.07815861 0.025313944
0.103988595 0.05156475 0.055931855 -0.0517167 0.01046071 -0.00019753914 0.11179251 0.03412299
-0.0050232913 -0.09093345 0.051882874 -0.0244276 -0.0615274 0.06735282 -0.00013883847 -0.012743209
-0.010157774 -0.027381545 -0.09640619 -0.043372057 -0.06256061 0.0053625545 0.086447604 -0.15643993
0.07801963 -0.07669709 -0.05309423 0.01471245 -0.02730968 0.059950475 -0.031322792 -0.01664407
-0.0069269887 0.03315482 -0.05562025 -0.051709224 -0.021098755 -0.06903547 -0.03973444 0.06402964
0.0024597836 0.13120325 0.06800757 -0.014942239 0.06846493 0.009708555 -0.06343697 -0.099951
0.16935518 -0.015559183 -0.08306037 0.09888053 0.0054786312 -0.046438385 -0.04499737 -0.09591983
0.025202539 -0.07625976 0.03324697 0.101416476 -0.050445605 0.008243042 0.039560758 0.0032550513
-0.019315468 -0.06286607 0.062256325 0.041928917 -0.02678967 -0.05953975 -0.042393815 -0.09207791
-0.013548479 0.011147514 -0.07160034 -0.027718673 0.05545887 -0.079799876 0.0062571694 -0.07189986
0.070164725 -0.06283001 0.13321257 0.100510255 -0.06327038 0.11993158 -0.066828944 0.07433074
0.14072858 0.16224091 -0.15455937 -0.0968056 -0.07736778 -0.09950764 -0.06342367 -0.1570702
0.059059717 -0.024549514 0.0056923092 -0.082665175 0.039356597 0.02936243 -0.042703748 -0.058352735
-0.17327973 -0.06836283 -0.0037315842 -0.021182885 -0.15196104 -0.051396146 -0.089140184 -0.030655649
-0.10367558 -0.048797127 -0.05981506 -0.089699745 0.038899936 -0.14238809 0.004683006 -0.028560197
-0.019202346 -0.12448197 -0.06138422 -0.07333106 -0.1784843 -0.030241957 0.06714957 -0.036428094
-0.015053321 0.055541873 -0.04332804 0.0035453849 0.02086116 -0.050091572 -0.07005189 0.0293961
-0.05139617 -0.099572174 -0.07288307 -0.016437452 0.056385573 -0.050790682 0.048190687 0.0071634883
0.09628851 0.062418234 -0.019022597 0.06584086 0.1464189 -0.013622286 0.04613664 0.16497089
-0.024627779 0.107388444 0.17708059 0.019951485 0.061771374 0.09144292 -0.0102424845 0.06486931
0.046417322 0.07620239 -0.1214985 0.02780353 0.007191272 -0.060863003 0.018147567 0.14547172
-0.020728255 -0.06985956 -0.08791983 0.06992992 -0.03173421 -0.05546656 0.044928323 0.16865139
0.062142603 0.048048384 0.0050561186 0.05970062 0.038538273 -0.107289575 -0.0749533 -0.028727727

fnet.layer2.0.conv1.bias f4 [64]
00000000: 23f7 ef3c 1f82 233d 2b40 103d 1c82 ba3b
00000010: ced0 4cbd 508c 153d f8fa 073d 50aa 7fbb
00000020: f802 9ebc 1bf7 01bd 2f2e cebc f462 60bd
00000030: 1f61 0abd 6e69 0138 0f72 aebc a6c8 d63b
00000040: bea2 003d 23db 5fbb d260 223d 1a86 04bc
00000050: 92f7 7dbb 5a09 4cbd d064 ad3a cb25 9d3c
00000060: c513 cb3b 9333 023d 6f4e 2dbd 2caf 41bd
00000070: 26cf 4abd 2b49 38bc aa4f 613d 3078 d33a
00000080: 35a6 77bd f044 2e3d d1f1 013d 0301 473d
00000090: b2f3 fcbc 9395 d73c 7a5c 52bd f48b 77bc
000000a0: 34e2 cb3c 5183 fcbc 0e37 d73b b6e2 6b3c
000000b0: f1d0 0fbc 7d6d 353d 159e 6dbd 2f75 c6bc
000000c0: cf68 933b b264 503d 4ef1 e53c 257e 1e3d
000000d0: bf84 1d3d 451e fb3c e82b 53bd 7630 56bd
000000e0: 1cce 223d d9f8 4e3d 454a 703c c595 3fbb
000000f0: 2aa0 793c be4a 2fbd 267a 3cbc 3fe4 a8ba
0.029292649 0.039919015 0.035217445 0.00569178 -0.05000382 0.036510766 0.033198327 -0.0039011426
-0.019288525 -0.0317298 -0.025168506 -0.05478187 -0.03378403 3.0854186e-05 -0.021294622 0.006554681
0.031405203 -0.0034157715 0.039643116 -0.008088613 -0.00387523 -0.049813606 0.0013228897 0.01918306
0.006197425 0.031787466 -0.04231113 -0.047286198 -0.04951396 -0.011247913 0.055007614 0.0016133841
-0.06046124 0.042546213 0.031724755 0.04858495 -0.030877922 0.02631644 -0.051357724 -0.015109051
0.024888135 -0.030824335 0.0065678423 0.014397314 -0.008777843 0.04429387 -0.058012087 -0.0242258
0.004498578 0.05087728 0.028069165 0.03869452 0.038456675 0.030654082 -0.051555544 -0.05229231
0.039747342 0.05053029 0.014666145 -0.0029233557 0.01523594 -0.04279589 -0.011503732 -0.0012885405

fnet.layer2.0.conv2.weight f4 [64, 64, 3, 3]
00000000: 9a6f c93d 569f 063e e96a 1d3d 969e fe3d
00000010: bba3 3abc 2ce6 b3bd 9ff7 be3d bc80 713c
00000020: 7193 ba3b 014e 163d 819b 2e3c 6434 f23c
00000030: 1ab2 a7bd 8d79 a13d 8055 003e b292 23bd
00000040: 8302 ad3c f918 793d f48c 0cbd 1254 d43d
00000050: 9fab 85bb 2c74 e03d 8455 9a3c 4e34 603d
00000060: bd44 063d a1a3 0a3d 88b4 8bbd 19ed 0dbe
00000070: 85d2 45be 09f9 b5bd 01b0 e23c d3df eabb
00000080: 28b5 6f3d b14d fdbc 48a6 67bd 9de3 3f3c
00000090: 8e79 9abd d53d 533c cd1a 353d 7446 763c
000000a0: b9ac a73d fd8f 3ebd f74b b23c c51a 4fbd
000000b0: 1f90 3cbd ed6f 1c3c 81e1 e2bd 8983 d9bd
000000c0: c675 f1bd ca73 24bd 07f8 a6bd 40ce b23c
000000d0: 30d1 8bbd 3b1a 6dbd 464c 833d 2857 173d
000000e0: 2c71 ea3b f7a5 7c3d eaea f63c d68a 94bd
000000f0: 2e6c 03bd 3c17 c4bd 108a 9cbd 9c25 89bd
00000100: 2ed4 df3d 47de 7b3b 2956 313d 3672 56bc
00000110: 745d 123d ffb0 233e a407 573e 0ed0 2f3d
00000120: 9b20 1e3e cdc0 293d f4a1 843d 2eef 943b
00000130: ae54 7a3d e899 1b3d 5e82 733d 08b9 cb3d
00000140: 9721 1c3d 7468 20be 0031 b6bb 80b8 653d
00000150: 071b 493d 6a6c b2bc c751 073e 2fad 3939
00000160: d8ee 153e fa95 213d 2ae8 8cbd a08b 62bd
00000170: fa01 6bbe a696 5e3c e67a 5fbc 1d04 253d
00000180: f5e0 e8bd a1a9 0bbd 83e0 b8bc 9b03 c9bc
00000190: ea17 253d c620 e7bd 6f4c 95bc 3db1 a73d
000001a0: 9a25 0bbd 1d5b cfbd 005c a53c 73d5 4bbc
000001b0: 91e4 a7bd b3b5 9a3c ff24 c73d 453e d03a
000001c0: 3861 a93d 9f98 eb3d c218 683d 727a 463c
000001d0: 14f5 2a3b e259 c0bc f427 17bd 65af b1bc
000001e0: fc05 b8bd 2f66 b7bc c95f 90bd 9944 a7bd
000001f0: 0c9c adbd eb4d 94bc e8fb aa3d 36de 9f3d
00000200: 96a2 30bc 0a22 21bb f1e2 943d 9747 3cbd
00000210: 4baf 833c e3b8 d5bd 1fea 81bd f5fb 873c
00000220: 6b4f c43d c242 0cbd 4605 073e ee73 603c
00000230: f0c9 13bd a837 3f3d ccd8 36bd facb 5bbc
00000240: 5a22 953c 6c0a db3b a156 95bb c11d 6cbd
00000250: 13dc 4c3d be76 923c c1f0 603c 9805 3d3d
00000260: 2a83 d7bc 7993 febb f532 a5bd e4a8 aebb
00000270: 8c57 c1bd 77a3 80bd 56cb 4dbd a3d4 783d
00000280: a970 24bd af7b 30bd 526a 8dbd 131f c3bd
00000290: 8cb6 b4bd c5c8 02bd 0051 40bd 0cfc f6bc
000002a0: 9a97 28bd 880f c43c 84f5 7b3c 5a84 fdbd
000002b0: 1983 dabd 6cd3 a6bd 86e3 57bd 4814 a23b
000002c0: 2aff a2bd ee87 f9bd 058d 213d 5640 983d
000002d0: d9db b73b 4db3 0c3c cd15 8a3d 075e a3b9
000002e0: c312 84bd 4a26 7bbd deca 29be 16ff bfbd
000002f0: a907 23be 5683 cabc 5b57 af3d faf8 123d
00000300: c60c dbbd cca7 813c bdfd a6bc 7d9b 9f3b
00000310: 5b20 20bb f2a1 683c 033b 8a3d b0df 8d3c
00000320: 13be 5e3d 6564 c73d fed7 7a3c 3575 ee3d
00000330: 2b4a 5bbc 5cf1 24bd a036 acbb b28d 263d
00000340: dda1 d03d ddbd 853d aa0e 96bc f8c0 9c3d
00000350: 2bc9 f13d c5bb 7ebd 9819 d13c 701e dc3d
00000360: b34a d63d fa67 9b3d f730 223e 957c 0fbe
00000370: e030 06be a7fa dabd 4ba9 21be 9bb2 c8bc
00000380: ee1a 8dbd bc75 d4bd 1f00 98bc 169e b7bd
00000390: 7d53 8e3d 47bc 373d 3b15 b43d 1baa ce3d
000003a0: 6425 bb3d 3a2c 683d a372 353d 5ff9 923d
000003b0: e5a9 123d f70a c6bc 0974 963d 330e 02be
000003c0: 602b dbbd 0001 6abe 26fa 0bbe a1cb 42be
000003d0: 9b24 f6bd 2409 ddbc a749 e3bc e523 b0bd
000003e0: 77b4 3b3c 6653 0ebe bc78 02be f7fb 493c
000003f0: 2039 00be fdda 18bd 58c9 3abd ca0d 233b
0.098357394 0.1314672 0.038432036 0.124325916 -0.011391575 -0.08784136 0.09324574 0.014740165
0.005693846 0.036695484 0.010657192 0.029565997 -0.08188267 0.07884512 0.12532616 -0.03993482
0.021119362 0.06081483 -0.03431411 0.10367598 -0.0040792967 0.10959658 0.018839605 0.05473738
0.032780398 0.033847455 -0.06821543 -0.13859977 -0.19318588 -0.0888539 0.027671816 -0.007167795
0.058522373 -0.030920835 -0.056555063 0.011711982 -0.07542716 0.01289316 0.044215012 0.015031446
0.08187241 -0.046524037 0.021764738 -0.05056264 -0.046035882 0.00954817 -0.11078168 -0.106207915
-0.117900416 -0.040149488 -0.08152776 0.021826863 -0.06827009 -0.057886343 0.064110324 0.036948353
0.0071546044 0.061681714 0.030141313 -0.07253043 -0.03208559 -0.09574744 -0.07643521 -0.066966265
0.10929142 0.0038432048 0.04329506 -0.013088753 0.035733655 0.15985487 0.20999008 0.042923026
0.15442125 0.041443635 0.064762026 0.004545114 0.061115913 0.037988573 0.0594505 0.09947401
0.03811797 -0.15664846 -0.0055600405 0.056084156 0.04909804 -0.021780211 0.1321479 0.00017707491
0.14641893 0.03944967 -0.06880219 -0.055308938 -0.22949973 0.013585722 -0.013640141 0.040287126
-0.11371032 -0.034097318 -0.022567993 -0.024537852 0.04030601 -0.11285548 -0.018224923 0.081881024
-0.033971407 -0.101248 0.02018547 -0.012441027 -0.081978925 0.018885469 0.09723853 0.0015887698
0.08270496 0.115037195 0.056664236 0.012114154 0.002608602 -0.02348036 -0.036903337 -0.02169008
-0.089855164 -0.022387592 -0.070495196 -0.08167381 -0.08477029 -0.01810356 0.083488286 0.07806055
-0.010780951 -0.002458694 0.07269848 -0.04596671 0.016074797 -0.10435655 -0.06343483 0.016599635
0.0958546 -0.034243353 0.13185605 0.013699515 -0.036081254 0.046683937 -0.044640347 -0.013415331
0.018204857 0.006684592 -0.004557446 -0.057645563 0.050014567 0.017878886 0.013729275 0.046147913
-0.026307661 -0.007769045 -0.0806636 -0.005330192 -0.09440526 -0.062811784 -0.050242744 0.06074966
-0.040146504 -0.043086704 -0.069050446 -0.09527411 -0.088238806 -0.03192975 -0.046952248 -0.030149482
-0.041160204 0.023933187 0.01537836 -0.1237876 -0.10669536 -0.08145794 -0.052707218 0.0049462654
-0.07958825 -0.1218413 0.039441127 0.07434146 0.0056109247 0.0085876705 0.067424394 -0.0003115984
-0.06448891 -0.061315812 -0.16581294 -0.09374826 -0.15920891 -0.024720829 0.085615836 0.035881974
-0.10695796 0.015827082 -0.020384664 0.0048708306 -0.0024433348 0.014198767 0.06749537 0.017318577
0.054380488 0.097359456 0.015310286 0.11643449 -0.013384382 -0.04026924 -0.0052555352 0.040662475
0.10187123 0.06530354 -0.01831754 0.07653993 0.11805948 -0.06219079 0.0255249 0.10747993
0.104634665 0.07588191 0.15838991 -0.14012368 -0.13104582 -0.106923394 -0.15787236 -0.024499228
-0.06889902 -0.103740185 -0.018554745 -0.089656994 0.06949518 0.04485729 0.08793112 0.10091039
0.09137991 0.056682803 0.04429878 0.0717647 0.035806555 -0.02417515 0.07346351 -0.12700729
-0.107016325 -0.22851944 -0.13669643 -0.19022991 -0.12018701 -0.026981898 -0.027745081 -0.08600596
0.0114566 -0.13899001 -0.12741369 0.0123281395 -0.12521791 -0.03731822 -0.045602173 0.0024880045
